…
activation=&#39;relu&#39;, input_shape=(28, 28, 1)), # default: strides = None (same as pool_size), padding = &#39;valid&#39; tf.keras.layers.MaxPooling2D(2, 2), tf.keras.layers.Conv2D(64, (3,3), activation=&#39;relu&#39;), tf.keras.layers.MaxPooling2D(2,2), tf.keras.layers.Flatten(), tf.keras.layers.Dense(128, activation=&#39;relu&#39;), tf.keras.layers.Dense(10, activation=&#39;softmax&#39;) ]) _________________________________________________________________ || Layer (type) Output Shape Param # || Comments ================================================================= || conv2d (Conv2D) (None, 26, 26, 64) 640 || = 64 x (3 x 3 x 1 + 1) _________________________________________________________________ || max_pooling2d (MaxPooling2D) (None, 13, 13, 64) 0 || _________________________________________________________________ || conv2d_1 (Conv2D) (None, 11, 11, 64) 36928 || = 64 x (3 x 3 x 64 + 1) _________________________________________________________________ || max_pooling2d_1 (MaxPooling2 (None, 5, 5, 64) 0 || _________________________________________________________________ || flatten_1 (Flatten) (None, 1600) 0 || _________________________________________________________________ || dense_2 (Dense) (None, 128) 204928 || = 128 x (1600 + 1) _________________________________________________________________ || dense_3 (Dense) (None, 10) 1290 || = 10 * (128 + 1) ================================================================= || Total params: 243,786 Trainable params: 243,786 Non-trainable params: 0 How to compute output size Convolution layer (n+2p−f+1)×(n+2p−f+1)(n + 2p - f + 1) \times (n + 2p - f + 1) (n+2p−f+1)×(n+2p−f+1) MaxPooling layer Floor(height−fs+1)×Floor(weight−fs+1)Floor(\frac{height - f}{s} + 1) \times Floor(\frac{weig
…
9;) and 1 for the other (&#39;humans&#39;) tf.keras.layers.Dense(1, activation=&#39;sigmoid&#39;) ]) # Train our model with the binary_crossentropy loss, # because it&#39;s a binary classification problem and our final activation is a sigmoid. # [More details](http:&#x2F;&#x2F;www.cs.toronto.edu&#x2F;~tijmen&#x2F;csc321&#x2F;slides&#x2F;lecture_slides_lec6.pdf) model.compile(loss=&#39;binary_crossentropy&#39;, optimizer=RMSprop(lr=0.001), metrics=[&#39;acc&#39;]) model.summary() Layer (type) Output Shape Param # ================================================================= conv2d (Conv2D) (None, 298, 298, 16) 448 _________________________________________________________________ max_pooling2d (MaxPooling2D) (None, 149, 149, 16) 0 _________________________________________________________________ conv2d_1 (Conv2D) (None, 147, 147, 32) 4640 _________________________________________________________________ max_pooling2d_1 (MaxPooling2 (None, 73, 73, 32) 0 _________________________________________________________________ conv2d_2 (Conv2D) (None, 71, 71, 64) 18496 _________________________________________________________________ max_pooling2d_2 (MaxPooling2 (None, 35, 35, 64) 0 _________________________________________________________________ conv2d_3 (Conv2D) (None, 33, 33, 64) 36928 _________________________________________________________________ max_pooling2d_3 (MaxPooling2 (None, 16, 16, 64) 0 _________________________________________________________________ conv2d_4 (Conv2D) (None, 14, 14, 64) 36928 _________________________________________________________________ max_pooling2d_4 (MaxPooling2 (None, 7, 7, 64) 0 _________________________________________________________________ flatten (Flatten) (None, 3136) 0 _________________________________________________________________ dense (Dense) (None, 512) 1606144 _________________________________________________________________ dense_1 (Dense) (None, 1) 513 ================================================================= Total params: 1,704,097 Trainable params: 1,704,097 Non-trainable params: 0 The convolutions reduce the shape from 90000 (300 x 300) down to 3136 ImageDataGenerator # All images will be rescaled by 1.&#x2F;255 train_datagen = ImageDataGenerator(rescale=1&#x2F;255) validation_datagen = ImageDataGenerator(rescale=1&#x2F;255) # Flow t
…
